…
t:8080/"},"id":"Op86xhCox7rV","executionInfo":{"status":"ok","timestamp":1653978224592,"user_tz":-480,"elapsed":11126,"user":{"displayName":"JI TONG LIN A18CS0338","userId":"00696273074152775308"}},"outputId":"bb90e0dd-a9be-42d5-b082-c877092660bf"},"execution_count":null,"outputs":[{"output_type":"stream","name":"stdout","text":["Model: \"sequential_1\"\n","_________________________________________________________________\n"," Layer (type)                Output Shape              Param #   \n","=================================================================\n"," gaussian_noise_1 (GaussianN  (None, 20000)            0         \n"," oise)                                                           \n","                                                                 \n"," dense (Dense)               (None, 14000)             280014000 \n","                                                                 \n"," dense_1 (Dense)             (None, 8000)              112008000 \n","                                                                 \n"," dense_2 (Dense)             (None, 2000)              16002000  \n","                                                                 \n"," dense_3 (Dense)             (None, 8000)              16008000  \n","                                                                 \n"," dense_4 (Dense)             (None, 14000)             112014000 \n","                                                                 \n"," dense_5 (Dense)             (None, 20000)             280020000 \n","                                                                 \n","=================================================================\n","Total params: 816,066,000\n","Trainable params: 816,066,000\n","Non-trainable params: 0\n","_________________________________________________________________\n"]}]},{"cell_type":"code","source":["historys = dict()\n","\n","for n in n_features:\n","  X, y
…
ost:8080/"},"id":"LI6V_8EhzpDa","outputId":"b81cea00-671a-40df-bb52-5d44d5a50ff7","executionInfo":{"status":"ok","timestamp":1654150390949,"user_tz":-480,"elapsed":90985,"user":{"displayName":"JI TONG LIN A18CS0338","userId":"00696273074152775308"}}},"execution_count":null,"outputs":[{"output_type":"stream","name":"stdout","text":["Model: \"sequential\"\n","_________________________________________________________________\n"," Layer (type)                Output Shape              Param #   \n","=================================================================\n"," gaussian_noise (GaussianNoi  (None, 5000)             0         \n"," se)                                                             \n","                                                                 \n"," dense (Dense)               (None, 3500)              17503500  \n","                                                                 \n"," dense_1 (Dense)             (None, 2000)              7002000   \n","                                                                 \n"," dense_2 (Dense)             (None, 500)               1000500   \n","                                                                 \n"," dense_3 (Dense)             (None, 2000)              1002000   \n","                                                                 \n"," dense_4 (Dense)             (None, 3500)              7003500   \n","                                                                 \n"," dense_5 (Dense)             (None, 5000)              17505000  \n","                                                                 \n","=================================================================\n","Total params: 51,016,500\n","Trainable params: 51,016,500\n","Non-trainable params: 0\n","_________________________________________________________________\n","Epoch 1/50\n","21/21 [==============================] - 4s 33ms/step - loss: 0.6329 - val_los
…
478\n","Epoch 48/50\n","21/21 [==============================] - 0s 17ms/step - loss: 0.4504 - val_loss: 0.4479\n","Epoch 49/50\n","21/21 [==============================] - 0s 18ms/step - loss: 0.4496 - val_loss: 0.4477\n","Epoch 50/50\n","21/21 [==============================] - 0s 16ms/step - loss: 0.4497 - val_loss: 0.4484\n","Model: \"sequential_1\"\n","_________________________________________________________________\n"," Layer (type)                Output Shape              Param #   \n","=================================================================\n"," gaussian_noise_1 (GaussianN  (None, 4000)             0         \n"," oise)                                                           \n","                                                                 \n"," dense_6 (Dense)             (None, 2800)              11202800  \n","                                                                 \n"," dense_7 (Dense)             (None, 1600)              4481600   \n","                                                                 \n"," dense_8 (Dense)             (None, 400)               640400    \n","                                                                 \n"," dense_9 (Dense)             (None, 1600)              641600    \n","                                                                 \n"," dense_10 (Dense)            (None, 2800)              4482800   \n","                                                                 \n"," dense_11 (Dense)            (None, 4000)              11204000  \n","                                                                 \n","=================================================================\n","Total params: 32,653,200\n","Trainable params: 32,653,200\n","Non-trainable params: 0\n","_________________________________________________________________\n","Epoch 1/50\n","21/21 [==============================] - 1s 26ms/step - loss: 0.5770 - val_los
…
602\n","Epoch 48/50\n","21/21 [==============================] - 0s 15ms/step - loss: 0.4420 - val_loss: 0.4605\n","Epoch 49/50\n","21/21 [==============================] - 0s 15ms/step - loss: 0.4437 - val_loss: 0.4603\n","Epoch 50/50\n","21/21 [==============================] - 0s 13ms/step - loss: 0.4429 - val_loss: 0.4602\n","Model: \"sequential_2\"\n","_________________________________________________________________\n"," Layer (type)                Output Shape              Param #   \n","=================================================================\n"," gaussian_noise_2 (GaussianN  (None, 3000)             0         \n"," oise)                                                           \n","                                                                 \n"," dense_12 (Dense)            (None, 2100)              6302100   \n","                                                                 \n"," dense_13 (Dense)            (None, 1200)              2521200   \n","                                                                 \n"," dense_14 (Dense)            (None, 300)               360300    \n","                                                                 \n"," dense_15 (Dense)            (None, 1200)              361200    \n","                                                                 \n"," dense_16 (Dense)            (None, 2100)              2522100   \n","                                                                 \n"," dense_17 (Dense)            (None, 3000)              6303000   \n","                                                                 \n","=================================================================\n","Total params: 18,369,900\n","Trainable params: 18,369,900\n","Non-trainable params: 0\n","_________________________________________________________________\n","Epoch 1/50\n","21/21 [==============================] - 1s 18ms/step - loss: 0.5422 - val_lo
…
.4738\n","Epoch 48/50\n","21/21 [==============================] - 0s 11ms/step - loss: 0.4325 - val_loss: 0.4737\n","Epoch 49/50\n","21/21 [==============================] - 0s 8ms/step - loss: 0.4329 - val_loss: 0.4737\n","Epoch 50/50\n","21/21 [==============================] - 0s 9ms/step - loss: 0.4328 - val_loss: 0.4747\n","Model: \"sequential_3\"\n","_________________________________________________________________\n"," Layer (type)                Output Shape              Param #   \n","=================================================================\n"," gaussian_noise_3 (GaussianN  (None, 2000)             0         \n"," oise)                                                           \n","                                                                 \n"," dense_18 (Dense)            (None, 1400)              2801400   \n","                                                                 \n"," dense_19 (Dense)            (None, 800)               1120800   \n","                                                                 \n"," dense_20 (Dense)            (None, 200)               160200    \n","                                                                 \n"," dense_21 (Dense)            (None, 800)               160800    \n","                                                                 \n"," dense_22 (Dense)            (None, 1400)              1121400   \n","                                                                 \n"," dense_23 (Dense)            (None, 2000)              2802000   \n","                                                                 \n","=================================================================\n","Total params: 8,166,600\n","Trainable params: 8,166,600\n","Non-trainable params: 0\n","_________________________________________________________________\n","Epoch 1/50\n","21/21 [==============================] - 1s 15ms/step - loss: 0.5300 - val_loss
…
0.4947\n","Epoch 48/50\n","21/21 [==============================] - 0s 7ms/step - loss: 0.4325 - val_loss: 0.4945\n","Epoch 49/50\n","21/21 [==============================] - 0s 7ms/step - loss: 0.4322 - val_loss: 0.4936\n","Epoch 50/50\n","21/21 [==============================] - 0s 7ms/step - loss: 0.4313 - val_loss: 0.4942\n","Model: \"sequential_4\"\n","_________________________________________________________________\n"," Layer (type)                Output Shape              Param #   \n","=================================================================\n"," gaussian_noise_4 (GaussianN  (None, 1000)             0         \n"," oise)                                                           \n","                                                                 \n"," dense_24 (Dense)            (None, 700)               700700    \n","                                                                 \n"," dense_25 (Dense)            (None, 400)               280400    \n","                                                                 \n"," dense_26 (Dense)            (None, 100)               40100     \n","                                                                 \n"," dense_27 (Dense)            (None, 400)               40400     \n","                                                                 \n"," dense_28 (Dense)            (None, 700)               280700    \n","                                                                 \n"," dense_29 (Dense)            (None, 1000)              701000    \n","                                                                 \n","=================================================================\n","Total params: 2,043,300\n","Trainable params: 2,043,300\n","Non-trainable params: 0\n","_________________________________________________________________\n","Epoch 1/50\n","21/21 [==============================] - 1s 13ms/step - loss: 0.5413 - val_los
…
 - val_accuracy: 0.9904\n","Epoch 49/50\n","23/23 [==============================] - 0s 18ms/step - loss: 16.8467 - accuracy: 0.9748 - val_loss: 17.9322 - val_accuracy: 1.0000\n","Epoch 50/50\n","23/23 [==============================] - 0s 18ms/step - loss: 18.3400 - accuracy: 0.9832 - val_loss: 17.1896 - val_accuracy: 0.9904\n","Model: \"sequential_4\"\n","_________________________________________________________________\n"," Layer (type)                Output Shape              Param #   \n","=================================================================\n"," gaussian_noise_4 (GaussianN  (None, 5000)             0         \n"," oise)                                                           \n","                                                                 \n"," dense_20 (Dense)            (None, 3000)              15003000  \n","                                                                 \n"," dense_21 (Dense)            (None, 1000)              3001000   \n","                                                                 \n"," dense_22 (Dense)            (None, 200)               200200    \n","                                                                 \n"," dense_23 (Dense)            (None, 1)                 201       \n","                                                                 \n","=================================================================\n","Total params: 18,204,401\n","Trainable params: 18,204,401\n","Non-trainable params: 0\n","_________________________________________________________________\n"]}]},{"cell_type":"code","metadata":{"id":"BzlSAwAU3dnU"},"source":["def base_dae (inputX,
…
